The model that we will train our classifier has the following structure:
==========================================================================================
Layer (type:depth-idx)                   Output Shape              Param #
==========================================================================================
CNNmodelLarge                            --                        --
├─Conv2d: 1-1                            [128, 32, 124, 124]       832
├─BatchNorm2d: 1-2                       [128, 32, 124, 124]       64
├─MaxPool2d: 1-3                         [128, 32, 62, 62]         --
├─Conv2d: 1-4                            [128, 64, 58, 58]         51,264
├─BatchNorm2d: 1-5                       [128, 64, 58, 58]         128
├─MaxPool2d: 1-6                         [128, 64, 29, 29]         --
├─Conv2d: 1-7                            [128, 128, 27, 27]        73,856
├─BatchNorm2d: 1-8                       [128, 128, 27, 27]        256
├─MaxPool2d: 1-9                         [128, 128, 13, 13]        --
├─Conv2d: 1-10                           [128, 256, 11, 11]        295,168
├─BatchNorm2d: 1-11                      [128, 256, 11, 11]        512
├─MaxPool2d: 1-12                        [128, 256, 5, 5]          --
├─Conv2d: 1-13                           [128, 512, 3, 3]          1,180,160
├─BatchNorm2d: 1-14                      [128, 512, 3, 3]          1,024
├─MaxPool2d: 1-15                        [128, 512, 1, 1]          --
├─Linear: 1-16                           [128, 4]                  2,052
==========================================================================================
Total params: 1,605,316
Trainable params: 1,605,316
Non-trainable params: 0
Total mult-adds (G): 36.53
==========================================================================================
Input size (MB): 8.39
Forward/backward pass size (MB): 1712.59
Params size (MB): 6.42
Estimated Total Size (MB): 1727.40
…
