The model that we will train our classifier has the following structure:
===============================================================================================
Layer (type:depth-idx)                        Output Shape              Param #
===============================================================================================
ResNetXRayModel                               --                        --
├─Sequential: 1-1                             [128, 512, 1, 1]          --
│    └─Conv2d: 2-1                            [128, 64, 64, 64]         9,408
│    └─BatchNorm2d: 2-2                       [128, 64, 64, 64]         128
│    └─ReLU: 2-3                              [128, 64, 64, 64]         --
│    └─MaxPool2d: 2-4                         [128, 64, 32, 32]         --
│    └─Sequential: 2-5                        [128, 64, 32, 32]         --
│    │    └─BasicBlock: 3-1                   [128, 64, 32, 32]         73,984
│    │    └─BasicBlock: 3-2                   [128, 64, 32, 32]         73,984
│    │    └─BasicBlock: 3-3                   [128, 64, 32, 32]         73,984
│    └─Sequential: 2-6                        [128, 128, 16, 16]        --
│    │    └─BasicBlock: 3-4                   [128, 128, 16, 16]        230,144
│    │    └─BasicBlock: 3-5                   [128, 128, 16, 16]        295,424
│    │    └─BasicBlock: 3-6                   [128, 128, 16, 16]        295,424
│    │    └─BasicBlock: 3-7                   [128, 128, 16, 16]        295,424
│    └─Sequential: 2-7                        [128, 256, 8, 8]          --
│    │    └─BasicBlock: 3-8                   [128, 256, 8, 8]          919,040
│    │    └─BasicBlock: 3-9                   [128, 256, 8, 8]          1,180,672
│    │    └─BasicBlock: 3-10                  [128, 256, 8, 8]          1,180,672
│    │    └─BasicBlock: 3-11                  [128, 256, 8, 8]          1,180,672
│    │    └─BasicBlock: 3-12                  [128, 256, 8, 8]          1,180,672
│    │    └─BasicBlock: 3-13                  [128, 256, 8, 8]          1,180,672
│    └─Sequential: 2-8                        [128, 512, 4, 4]          --
│    │    └─BasicBlock: 3-14                  [128, 512, 4, 4]          3,673,088
│    │    └─BasicBlock: 3-15                  [128, 512, 4, 4]          4,720,640
│    │    └─BasicBlock: 3-16                  [128, 512, 4, 4]          4,720,640
│    └─AdaptiveAvgPool2d: 2-9                 [128, 512, 1, 1]          --
├─Sequential: 1-2                             [128, 4]                  --
│    └─Flatten: 2-10                          [128, 512]                --
│    └─Linear: 2-11                           [128, 4]                  2,052
│    └─Softmax: 2-12                          [128, 4]                  --
===============================================================================================
Total params: 21,286,724
Trainable params: 21,286,724
Non-trainable params: 0
Total mult-adds (G): 153.11
===============================================================================================
Input size (MB): 25.17
Forward/backward pass size (MB): 2499.81
Params size (MB): 85.15
Estimated Total Size (MB): 2610.12
…
