The model that we will train our classifier has the following structure:
===============================================================================================
Layer (type:depth-idx)                        Output Shape              Param #
===============================================================================================
ResNetXRayModel                               --                        --
├─Sequential: 1-1                             [128, 512, 1, 1]          --
│    └─Conv2d: 2-1                            [128, 64, 64, 64]         9,408
│    └─BatchNorm2d: 2-2                       [128, 64, 64, 64]         128
│    └─ReLU: 2-3                              [128, 64, 64, 64]         --
│    └─MaxPool2d: 2-4                         [128, 64, 32, 32]         --
│    └─Sequential: 2-5                        [128, 64, 32, 32]         --
│    │    └─BasicBlock: 3-1                   [128, 64, 32, 32]         (73,984)
│    │    └─BasicBlock: 3-2                   [128, 64, 32, 32]         (73,984)
│    └─Sequential: 2-6                        [128, 128, 16, 16]        --
│    │    └─BasicBlock: 3-3                   [128, 128, 16, 16]        (230,144)
│    │    └─BasicBlock: 3-4                   [128, 128, 16, 16]        (295,424)
│    └─Sequential: 2-7                        [128, 256, 8, 8]          --
│    │    └─BasicBlock: 3-5                   [128, 256, 8, 8]          (919,040)
│    │    └─BasicBlock: 3-6                   [128, 256, 8, 8]          (1,180,672)
│    └─Sequential: 2-8                        [128, 512, 4, 4]          --
│    │    └─BasicBlock: 3-7                   [128, 512, 4, 4]          3,673,088
│    │    └─BasicBlock: 3-8                   [128, 512, 4, 4]          4,720,640
│    └─AdaptiveAvgPool2d: 2-9                 [128, 512, 1, 1]          --
├─Sequential: 1-2                             [128, 4]                  --
│    └─Flatten: 2-10                          [128, 512]                --
│    └─Linear: 2-11                           [128, 4]                  2,052
│    └─Softmax: 2-12                          [128, 4]                  --
===============================================================================================
Total params: 11,178,564
Trainable params: 8,405,316
Non-trainable params: 2,773,248
Total mult-adds (G): 75.80
===============================================================================================
Input size (MB): 25.17
Forward/backward pass size (MB): 1660.95
Params size (MB): 44.71
Estimated Total Size (MB): 1730.83
…
